Assets/Resources/Models/Combiner.onnx (onnx, 87928 bytes, 8 tensors)

distribution.branches.0.bias f4 [7]
0	0xbe8a09d8	-0.26960635
1	0x3c20d9f4	0.009817589
2	0xbc07a3c3	-0.00827879
3	0x3cd151fb	0.025551787
4	0x3ca4cdb3	0.020117616
5	0x3d002215	0.031282503
6	0x3cb3bb35	0.021939853

distribution.branches.0.weight f4 [7, 128]
0	0x3e711048	0.23541367
1	0xbcd25be9	-0.025678592
2	0x3cf53b1c	0.029935412
3	0xbe27c9b0	-0.16385531
4	0xbe251dde	-0.16124675
5	0x3e20fa17	0.15720402
6	0xbc78f512	-0.015195148
7	0x3eb99c25	0.3625194
8	0xbce25d58	-0.0276324
9	0xbcfbd1ea	-0.030739743
10	0xbdb7537f	-0.089514725
11	0x3d628830	0.05530566
12	0x3dbdcd7c	0.09267709
13	0x3ca82151	0.020523699
14	0x3eb972a3	0.36220273
15	0xbd9a1e9a	-0.07525368
16	0x3df625c7	0.12018924
17	0xbd1a9be9	-0.037746344
18	0x3eb9ebc4	0.36312687
19	0xbd950308	-0.07275969
20	0xbe18a328	-0.14905989
21	0xbde3ad45	-0.11117033
22	0xbd9d70b2	-0.076875106
23	0x3eb5c5f7	0.35502598
24	0xbdc0a889	-0.094071455
25	0x3da08a77	0.0783891
26	0x3df4168b	0.11918362
27	0x3cef7180	0.029228926
28	0xbe01266d	-0.12612315
29	0xbe0a48a5	-0.13504274
30	0x3dc7af7c	0.09750268
31	0xbddeacc6	-0.10872798
32	0xbdae0521	-0.08497072
33	0x3eb77c15	0.35836855
34	0xbdd9eea8	-0.10641223
35	0x3db10a3a	0.08644529
36	0x3e32a887	0.174471
37	0xbcd0f0ec	-0.025505506
38	0x3d8974ad	0.06711707
39	0xbcff6af0	-0.031178921
40	0xbe371bc7	-0.1788169
41	0x3e98d720	0.29851627
42	0xbd4ee4e2	-0.05051125
43	0xbe9787aa	-0.2959569
44	0x3d87b278	0.06625837
45	0xbe37f9e3	-0.17966418
46	0xbe02bb79	-0.12766828
47	0xbddfa9e9	-0.1092108
48	0xbe104b93	-0.1409133
49	0xbb283380	-0.0025665462
50	0xbd1bd763	-0.038047206
51	0xbe2b0e79	-0.1670474
52	0xbd294d08	-0.04133323
53	0xbdd8a0b1	-0.105775245
54	0xbe127ab4	-0.1430462
55	0xbe24f086	-0.16107377
56	0xbe37abcf	-0.17936634
57	0xbd2a6782	-0.04160262
58	0xbd1076ab	-0.03526942
59	0xbe211885	-0.1573201
60	0xbc949125	-0.018135617
61	0xbe181db1	-0.14855076
62	0x3e100836	0.14065632
63	0x3eaa9ae1	0.33321288
64	0x3e78935f	0.24274968
65	0xbd33963a	-0.04384444
66	0xbd9f0119	-0.07763881
67	0xbc88188e	-0.016613271
68	0x3eb2e931	0.34943536
69	0xbd63b394	-0.05559118
70	0xbe57c4b0	-0.21071124
71	0x3dc834a7	0.09775668
72	0xbc9a9ea0	-0.018874466
73	0xbbb81351	-0.005617537
74	0x3c0e4e1b	0.008685614
75	0x3e3b3e31	0.18285443
76	0x3e5993a4	0.21247727
77	0x3e88ccbb	0.26718697
78	0x3e340fd4	0.17584163
79	0x3ec2ce88	0.38048196
80	0xbd1d8aa7	-0.038462307
81	0xbe10a751	-0.14126326
82	0xbe399593	-0.18123464
83	0xbd84a856	-0.0647742
84	0xbdcd5f97	-0.10027998
85	0x3bc82148	0.006107483
86	0xbded1b5a	-0.115774825
87	0xbdec3b78	-0.1153478
88	0x3d904dc9	0.07046086
89	0xbd8e188c	-0.06938276
90	0xbcbe23d3	-0.023210442
91	0xbe04aa06	-0.12955484
92	0x3e7c98c8	0.24667656
93	0xbcb23c86	-0.021757375
94	0x3c2e6336	0.010643771
95	0xbdca737d	-0.09885309
96	0xbdcc4487	-0.09974008
97	0x3e1c775c	0.15279907
98	0xbd2858f1	-0.041100446
99	0xbdde43bb	-0.10852762
100	0x3d19e8e4	0.037575617
101	0xbd0dd252	-0.034624405
102	0xbdd212ee	-0.10257517
103	0x3a5e3d80	0.0008477792
104	0x3d3951f0	0.045244157
105	0xbe312966	-0.17300949
106	0xbdeae777	-0.1146993
107	0xbd579cda	-0.05263982
108	0xbe49e8e9	-0.19717754
109	0x3dd6b58a	0.104838446
110	0x3dbe2210	0.09283841
111	0xbd1e2b3b	-0.038615447
112	0xbe13911b	-0.14410822
113	0xbe84da60	-0.25947857
114	0xbd15e163	-0.0365919
115	0xbd92bca5	-0.07164887
116	0xbc733aa7	-0.014845527
117	0x3e98668f	0.29765746
118	0x3d4e6516	0.05038937
119	0x3dda5b4f	0.10661947
120	0x3cbd8a16	0.023137134
121	0x3dc8364f	0.097759835
122	0xbdd7248c	-0.10505018
123	0xbd10a0d5	-0.03530963
124	0xbd90cfda	-0.070708945
125	0x3e0ac76f	0.1355264
126	0xbd834c09	-0.06410987
127	0xbe2423b3	-0.16029243
128	0xbcd5a2d6	-0.026078623
129	0x3da3cd98	0.07998198
130	0x3d890735	0.06690828
131	0x3df81ee0	0.12115264
132	0xbb31d278	-0.0027133506
133	0xbd3edfc8	-0.046600133
134	0x3c0e7c7c	0.008696672
135	0xbd16f0e1	-0.036850814
136	0x3c2e102d	0.010623974
137	0xbe16f168	-0.14740527
138	0xbc8e26f4	-0.017352559
139	0xbd361e0b	-0.044462245
140	0x3cc01437	0.02344714
141	0xbd211a45	-0.039331693
142	0xbd22a894	-0.03971155
143	0x3db7a4cf	0.089669816
144	0x3cda8738	0.026675805
145	0x3db57b10	0.08861363
146	0xbcc8228b	-0.024430534
147	0xbcf9e306	-0.030503761
148	0xbd0d998b	-0.034570258
149	0x3d7e5886	0.06209614
150	0x3cadf3bd	0.021234388
151	0xbcea48d5	-0.028599182
152	0xbcc74183	-0.02432323
153	0xbd0e6347	-0.034762647
154	0x3d5ea280	0.05435419
155	0xbdb3aadf	-0.087728254
156	0x3d890834	0.06691018
157	0xbd2762e3	-0.04086579
158	0x3c83c35e	0.01608437
159	0xbc958447	-0.018251551
160	0xbd50bd3e	-0.050961725
161	0xbd6f4ec8	-0.05842474
162	0xbd1e165d	-0.038595546
163	0x3e06e6a1	0.13173915
164	0x3ca0d5ef	0.019633261
165	0xbd94b6fe	-0.072614655
166	0x3d0c543a	0.034260012
167	0xbde96e3d	-0.113979794
168	0x3e3412ad	0.17585249
169	0xbdee70a4	-0.11642578
170	0xbda3c833	-0.07997169
171	0x3d1c2689	0.038122687
172	0xbcdd4e2d	-0.027014816
173	0xbdad79a3	-0.08470466
174	0xbbb39a99	-0.005481076
175	0xbb28e837	-0.0025773176
176	0x3bccef51	0.0062541147
177	0xbdc0a9cc	-0.09407386
178	0xbc009eec	-0.00785039
179	0x3d0e1ed7	0.03469738
180	0xbc903a8b	-0.01760604
181	0xbd4367ab	-0.047706287
182	0xbdcbfc48	-0.09960228
183	0xbd9276f1	-0.071515925
184	0x3d137660	0.036001563
185	0xbdfa21c1	-0.12213469
186	0xbd47fbf7	-0.048824277
187	0xbd0eba0b	-0.034845393
188	0xbdf92906	-0.12166028
189	0xbe17a441	-0.14808752
190	0x3b6c1348	0.0036022235
191	0xbd39a486	-0.045322917
192	0xbd12da48	-0.0358527
193	0xbd4c20eb	-0.04983608
194	0x3d5ca86e	0.053871565
195	0x3d8b461f	0.06800484
196	0xbd6e4891	-0.058174673
197	0xbb48fd6a	-0.0030668625
198	0x3cfb6d33	0.030691719
199	0x3d2614d1	0.040547196
200	0xbe1c69a3	-0.15274672
201	0xbda7668b	-0.081738554
202	0xbc1afbf4	-0.009459484
203	0xbda29249	-0.07938058
204	0xbdeb1db0	-0.11480272
205	0xbb9ea558	-0.004841488
206	0xbd85899e	-0.06520389
207	0xbd119307	-0.035540607
208	0xbd86e19c	-0.06586
209	0xbdbd4568	-0.09241754
210	0x3cc5eb9d	0.0241602
211	0xbc88458b	-0.016634723
212	0xbc9f36ca	-0.019435305
213	0xbc872243	-0.01649583
214	0xbd9c61d0	-0.07635844
215	0xbdc12933	-0.09431686
216	0xbd0d0c85	-0.034435768
217	0x3a0592c4	0.0005095417
218	0xbe1c8d2a	-0.15288225
219	0x3cefa6b0	0.029254287
220	0xbd7d7f65	-0.06188907
221	0xbc1c2edc	-0.0095326565
222	0xbe016e17	-0.12639652
223	0x3e00fce0	0.12596464
224	0xbd178219	-0.036989305
225	0x3c8e2093	0.017349517
226	0xbe2817fe	-0.16415402
227	0x3e44fd0a	0.19237152
228	0xbcb95d91	-0.022627624
229	0xbcd166b4	-0.025561668
230	0x3d4faeff	0.050704
231	0xbe5bed22	-0.21477178
232	0xbdbc2abe	-0.0918784
233	0x3d1e8a92	0.03870637
234	0x3d9dacd2	0.076989785
235	0xbe10392d	-0.14084311
236	0xbd18dcda	-0.037319995
237	0xbe2afddf	-0.16698407
238	0xbda4924e	-0.08035718
239	0xbd6c068e	-0.05762344
240	0x3d0db143	0.034592878
241	0xbc2fe817	-0.010736487
242	0xbd36f019	-0.04466257
243	0xbde1497e	-0.11000346
244	0xbc2a5190	-0.010395423
245	0xbc011537	-0.007878593
246	0xbd3c3e1d	-0.045957673
247	0xbdaeb127	-0.08529883
248	0xbdc222a2	-0.09479262
249	0x3c98eb71	0.018666955
250	0xbde08fed	-0.10964952
251	0xbdafecfc	-0.08590123
252	0xbbbb6ce9	-0.00571977
253	0x3d8c192a	0.06840737
254	0xbd60b492	-0.054859705
255	0x3e31d836	0.17367634

distribution.branches.1.bias f4 [17]
0	0xbcf9a00a	-0.03047182
1	0x3d376b26	0.04477992
2	0x3d7ac01b	0.061218362
3	0xbb97662f	-0.0046203355
4	0xbc4bf94b	-0.012449573
5	0xbc599174	-0.013279308
6	0x3b258182	0.0025254195
7	0x3d2bb743	0.04192282
8	0xbd7248ff	-0.059151646
9	0xbda9f3c1	-0.082984455
10	0xbd27f853	-0.041008305
11	0xbc6d3db6	-0.014480045
12	0xbd186c72	-0.037212797
13	0xbd87320e	-0.06601344
14	0xbc142708	-0.009042509
15	0x3c39f794	0.011350531
16	0x3c93da2a	0.018048365

distribution.branches.1.weight f4 [17, 128]
0	0xbc924e57	-0.017859621
1	0xbd835ae0	-0.064138174
2	0x3c95dba1	0.018293204
3	0xbc15fc34	-0.009154368
4	0xbe05358f	-0.13008712
5	0xbd8f4b01	-0.06996728
6	0xbcf7fcc9	-0.030271905
7	0xbc79060d	-0.0151991965
8	0xbd4364bb	-0.047703486
9	0x3dd39e13	0.10332885
10	0xbe2137a0	-0.15743876
11	0xbcd3696b	-0.025807103
12	0xbe06801b	-0.13134806
13	0x3d2cf729	0.042227898
14	0xbbddc37a	-0.0067676874
15	0xbd84d38b	-0.06485661
16	0x3cc3a583	0.023882633
17	0xbe71d3f7	-0.23616014
18	0xbc80c376	-0.015718203
19	0xbd9c0971	-0.07618988
20	0xbe06ee71	-0.13176896
21	0x3d02ad20	0.031903386
22	0xbdd50fef	-0.1040343
23	0xbc434565	-0.0119184
24	0xbe3864cf	-0.18007205
25	0x3cc8628b	0.024461051
26	0xbdaf97b8	-0.0857386
27	0x3d35e03c	0.0444033
28	0xbe4331ed	-0.19062014
29	0xbe185ce1	-0.1487918
30	0xbc5fb953	-0.013655025
31	0x3d2ef018	0.04270944
32	0xbd941992	-0.0723144
33	0x3b8b5a19	0.004252684
34	0xbdda6bda	-0.10665102
35	0xbe1f03e7	-0.15528832
36	0x3d56575c	0.052329406
37	0x3dde60d6	0.10858314
38	0x3cd7f523	0.026362007
39	0xbd498f85	-0.049209137
40	0xbe278d4c	-0.16362494
41	0x3c95e271	0.018296452
42	0xbdeb060b	-0.11475762
43	0xbb8e74d7	-0.0043474245
44	0x3ccb2409	0.024797456
45	0x3d4d7701	0.05016232
46	0xbb8f149d	-0.004366471
47	0xbe6654b4	-0.22493249
48	0xbdac8c52	-0.084252015
49	0xbde01401	-0.109413154
50	0xbd10e4b1	-0.035374347
51	0xbe65156f	-0.22371458
52	0xbe396698	-0.18105543
53	0xbd947765	-0.07249335
54	0x3ce3f995	0.02782897
55	0x3c020c1f	0.00793746
56	0xbde4767c	-0.111554116
57	0x3d85b3ae	0.06528412
58	0xbcdef25d	-0.027215177
59	0xbdbd1c2a	-0.092338875
60	0xbcd3a35d	-0.025834734
61	0xbd962895	-0.07331959
62	0x3ccf750a	0.025324363
63	0x3b125d68	0.0022333506
64	0x3d9b48d3	0.075822495
65	0xbd0f5482	-0.034992702
66	0x3d03f4a6	0.032215737
67	0xbd9ee382	-0.077582374
68	0xbc737d38	-0.014861397
69	0xbcdcb06d	-0.026939595
70	0xbdf2b0b0	-0.11850107
71	0xbdce9feb	-0.10089096
72	0x3d8839f9	0.066516824
73	0x3d88cda4	0.06679848
74	0x3dd51981	0.10405255
75	0xbc56fb8f	-0.0131215
76	0x3dbf5572	0.09342469
77	0xbc8c3321	-0.017114224
78	0xbd96c007	-0.07360845
79	0xbccfd577	-0.025370343
80	0x3d0ea532	0.03482551
81	0xbd3a0a6f	-0.045420107
82	0xbca1d331	-0.019754024
83	0xbcec7336	-0.02886353
84	0xbde357ae	-0.11100708
85	0xbdb3de9f	-0.08782696
86	0xbd4077d4	-0.046989277
87	0x3d244a06	0.040109657
88	0x3db328b4	0.08747998
89	0xbd8e9d13	-0.06963553
90	0xbd4f6036	-0.050628863
91	0xbd768835	-0.06018849
92	0x3d84298f	0.06453239
93	0xbd90f26a	-0.07077487
94	0x3d4935d6	0.049123608
95	0x3cc0add0	0.02352038
96	0xbdf1dd9d	-0.118098475
97	0xbd1122ad	-0.03543346
98	0xbe0a3b00	-0.13499069
99	0xbdb5a75a	-0.088698104
100	0xbd86ad32	-0.06576003
101	0x3da4c322	0.08045031
102	0xbe36a6dd	-0.17837091
103	0x3b37e423	0.0028059564
104	0x3d8764b5	0.06611005
105	0xbda4d9e8	-0.08049375
106	0xbd4b5f77	-0.04965159
107	0xbe0994a9	-0.13435616
108	0xbe00a823	-0.12564139
109	0x3d299408	0.04140094
110	0x3da465d0	0.08027232
111	0x3cf9b8b2	0.030483577
112	0xbe006a6a	-0.12540594
113	0xbd8d7dce	-0.06908761
114	0xbd45e434	-0.048313335
115	0xbcae0dc4	-0.021246798
116	0x3d378b22	0.04481042
117	0x3cb146a5	0.021640131
118	0xbe11e96f	-0.14249204
119	0xbd15958d	-0.036519576
120	0xbe1032ac	-0.1408183
121	0xbcabe426	-0.020982813
122	0xbcdbfe1b	-0.026854565
123	0x3b64ce33	0.0034912943
124	0xbd95bddb	-0.07311603
125	0xbdb61a41	-0.08891726
126	0xbc8e557f	-0.017374752
127	0xbd3e01a7	-0.046388295
128	0xbd1e5cea	-0.03866283
129	0x3dd1ea46	0.10249762
130	0xbd716da7	-0.058942463
131	0x3c3b4933	0.011431026
132	0x3b168a26	0.0022970526
133	0x3be1060d	0.0068671764
134	0xbce161ea	-0.02751251
135	0x3cda78c4	0.026668914
136	0x3d34924b	0.04408483
137	0x3c13ab9b	0.009013082
138	0xbb49f99d	-0.0030818947
139	0xbdc58408	-0.096443236
140	0xbd7c4f8c	-0.0615993
141	0xbd6d07f4	-0.057868913
142	0x3c9b6233	0.018967723
143	0xbd273ef3	-0.040831517
144	0xbd8bc8e1	-0.06825424
145	0xbbdb1ec5	-0.0066870176
146	0xbcaf95a4	-0.021433659
147	0x3cbb3a4d	0.022854948
148	0x3c5b61f2	0.013390051
149	0x3b445941	0.0029960426
150	0xbd748863	-0.05970038
151	0xbcc1bd76	-0.023649912
152	0xbd67a43d	-0.056553114
153	0xbac8fc7d	-0.0015334036
154	0xbda5edaa	-0.081019714
155	0xbe171b9c	-0.14756626
156	0xbb458380	-0.0030138195
157	0xbe4cab97	-0.19987331
158	0xbc0c5d8f	-0.008567228
159	0xbdc49352	-0.095984116
160	0xbd151a28	-0.036401898
161	0xbc5ba21e	-0.013405351
162	0xbdc2f097	-0.09518545
163	0xbdaa7d97	-0.083247356
164	0xbc6267e2	-0.013818713
165	0x3ccee852	0.025257263
166	0xbd140e64	-0.036146536
167	0x3d52b8a2	0.05144561
168	0xbd01ba3d	-0.03167175
169	0xbdfb8c83	-0.1228266
170	0xbe0faa90	-0.14029908
171	0x3d0d8d41	0.03455854
172	0xbd4987a5	-0.049201626
173	0xbdbdfcd4	-0.09276739
174	0x3d31a4ec	0.043370172
175	0xbd309590	-0.043111384
176	0x3de6b383	0.11264708
177	0xbdc02758	-0.09382504
178	0xbe000f1d	-0.12505765
179	0x3d39b39a	0.045337297
180	0xbd421b93	-0.047389578
181	0x3c0e9a13	0.008703726
182	0xbd33fd90	-0.043942988
183	0x3d23f4ec	0.040028498
184	0x3c9bafb9	0.01900469
185	0xbd8d3995	-0.068957485
186	0xbd1d51ef	-0.038408216
187	0xbcf1cc89	-0.029516475
188	0xbbd1946a	-0.006395866
189	0xbd92380d	-0.07139597
190	0xbdff5219	-0.12466831
191	0xbd1150de	-0.03547751
192	0xbd2e61aa	-0.04257361
193	0xbb81a78f	-0.003956742
194	0x3c35c61d	0.011094597
195	0xbd12289f	-0.03568327
196	0xbc8a72a7	-0.016900374
197	0x3be2ce53	0.0069215684
198	0x3d129441	0.035785917
199	0x3da08290	0.07837403
200	0x3c6d6957	0.014490447
201	0xbe04db06	-0.12974176
202	0x3c328918	0.0108969435
203	0xbacce773	-0.0015632942
204	0xbe0b0b57	-0.13578545
205	0x3c003d09	0.007827052
206	0xbdb99439	-0.09061474
207	0xbc0c0909	-0.008547076
208	0xbd797ef5	-0.06091209
209	0xbe0ed50a	-0.13948455
210	0xbc38effd	-0.011287686
211	0xbaa71978	-0.0012748679
212	0x3bcd35e6	0.0062625287
213	0xbd41a45c	-0.047275886
214	0xbdbe9e53	-0.09307542
215	0xbc5a4b0e	-0.0133235585
216	0xbdb307eb	-0.087417446
217	0xbdceb194	-0.10092464
218	0xbd8944f1	-0.06702603
219	0xbce4294e	-0.027851727
220	0xbe07a570	-0.13246703
221	0x3b479bee	0.0030457932
222	0xbc8c2d29	-0.017111378
223	0x3d849611	0.064739354
224	0xbdf63fe4	-0.12023905
225	0xbbf08307	-0.0073398384
226	0x3bf76dbf	0.0075509246
227	0x3d01d589	0.031697784
228	0xbd4cde4a	-0.05001668
229	0xbb1a87cf	-0.0023579483
230	0xbcde82fe	-0.027162071
231	0xbd57ef0d	-0.05271821
232	0xbdbc262f	-0.091869704
233	0x3d272985	0.04081108
234	0x3db5862c	0.08863482
235	0xbe003784	-0.12521178
236	0xbb7f6713	-0.003897135
237	0xbcc17728	-0.023616388
238	0xbc9fbbce	-0.019498732
239	0xbdd756b0	-0.10514581
240	0xbd25d870	-0.040489614
241	0xbc95c01c	-0.018280081
242	0xbd8d929a	-0.06912728
243	0xbd6fc4cf	-0.0585373
244	0xbd899fe5	-0.067199506
245	0x3c49f789	0.012327083
246	0x3d0d05b0	0.034429252
247	0xbda281ab	-0.079348885
248	0xbe009b16	-0.1255916
249	0xbdf6bb18	-0.12047404
250	0xbcd78709	-0.026309507
251	0xbdf06f42	-0.11739971
252	0xbd2cb340	-0.042163134
253	0xbcc12abd	-0.02357995
254	0xbdb5e11b	-0.08880826
255	0x3c7172df	0.01473686

network_body.linear_encoder.seq_layers.0.bias f4 [128]
0	0xbb141f40	-0.0022601634
1	0xbd856e19	-0.0651514
2	0xbda05faf	-0.0783075
3	0xbcd6a04a	-0.026199479
4	0x3c2569cb	0.010096024
5	0x3ad1e5dc	0.0016013938
6	0x3d52ab2b	0.05143277
7	0x3c85f128	0.016350344
8	0x3d9098b0	0.07060373
9	0x3d5b439f	0.053531285
10	0xbcbd5771	-0.023112984
11	0xbd1666da	-0.03671918
12	0xbc0de94c	-0.008661579
13	0x3d9e7ea9	0.07739002
14	0x3c83cf7e	0.01609015
15	0xbd3c99ac	-0.04604499
16	0x3cd7ba15	0.026333848
17	0xbd6d2c40	-0.05790353
18	0xbc90e7ba	-0.01768862
19	0x3d50f927	0.05101886
20	0xbd126932	-0.035744853
21	0xbd3cc31a	-0.0460845
22	0x3d84e53d	0.06489036
23	0xbd8da82f	-0.06916844
24	0xbb0f04c5	-0.0021822911
25	0x3d75d523	0.060017716
26	0x3cdaca66	0.02670784
27	0x3d99d427	0.07511168
28	0x3d40cb56	0.047068916
29	0xbd29d53a	-0.041463114
30	0x3ca69c91	0.020338329
31	0x3c8d3e6a	0.017241675
32	0xbd76491a	-0.06012831
33	0x3dd433c2	0.103614345
34	0xbd0860aa	-0.03329531
35	0x3dfbda99	0.122975536
36	0x3c514274	0.012772191
37	0xbd2b60fa	-0.04184053
38	0x3d6f41d0	0.058412373
39	0x3d4ede71	0.050505105
40	0xbb59230a	-0.0033132457
41	0x3d1f31ce	0.038865857
42	0x3c84653d	0.016161555
43	0xbc886853	-0.016651308
44	0xba3f6d73	-0.0007302381
45	0xbcf187c6	-0.029483687
46	0x3d6af466	0.057361983
47	0x3d80cd95	0.06289212
48	0x3db3aa42	0.087727085
49	0x3cea99d3	0.028637802
50	0x3a12f1ec	0.0005605507
51	0x3ca548da	0.02017634
52	0x3d95908a	0.07302959
53	0x3c3c54e8	0.011494853
54	0x3db3454e	0.08753453
55	0x3d62a442	0.05533243
56	0x3e2787c8	0.1636039
57	0xbda21013	-0.07913222
58	0x3c79c2f4	0.015244234
59	0x3d6e4113	0.05816753
60	0x3a75dc36	0.0009378822
61	0xbd28b0c9	-0.04118422
62	0xbcd636d0	-0.026149184
63	0x3d688a0a	0.05677227
64	0x3d311ec6	0.04324224
65	0x3c626b26	0.0138194915
66	0x3bd56db0	0.00651332
67	0xbc1f35bd	-0.009717402
68	0x3e0e8d4a	0.13921085
69	0xbd9cca13	-0.0765573
70	0x3e2e8fdf	0.1704707
71	0xbdaf665a	-0.08564444
72	0x3cd4e641	0.0259887
73	0xbd9b4b28	-0.07582694
74	0xbd80f3a5	-0.062964715
75	0x3db3b40c	0.087745756
76	0x3dcd18e6	0.100145146
77	0x3d856fbe	0.06515454
78	0xbd7a60be	-0.061127417
79	0xbc963f02	-0.018340591
80	0x3b7a2e75	0.0038174663
81	0xbba25c12	-0.0049548233
82	0x3ddc2d75	0.10750858
83	0xbc4d4569	-0.012528756
84	0x3d61b6b0	0.055105865
85	0xbd2420b6	-0.040070258
86	0xbdb37873	-0.08763208
87	0xbd1afa1f	-0.03783619
88	0x3a008924	0.0004903248
89	0x3d8271f4	0.06369391
90	0x3da8cdd9	0.08242387
91	0xbd20a1b1	-0.0392167
92	0x3dc1e956	0.094683334
93	0xbc93bb6f	-0.018033711
94	0x3c639fd5	0.013893087
95	0x3d9a0c89	0.07521922
96	0xbc515dda	-0.012778724
97	0xbd7572a3	-0.05992378
98	0xbe137adb	-0.14402334
99	0xbc406ba6	-0.011744415
100	0x3b571078	0.0032816213
101	0x3d5ec19a	0.05438385
102	0x3d1144cc	0.035466
103	0xbdbb1d44	-0.09136441
104	0xbd6c8d91	-0.057752196
105	0x3d895937	0.067064695
106	0x3d98ae45	0.07455114
107	0xbe1427af	-0.14468263
108	0xbcef9a80	-0.029248476
109	0xbd1351ff	-0.03596687
110	0x3da20f1c	0.07913038
111	0xbcbe8f1d	-0.023261601
112	0x3b783434	0.0037872912
113	0xbd8def50	-0.06930411
114	0x3d958e4a	0.0730253
115	0xbd7081b1	-0.058717433
116	0x3e16d559	0.14729823
117	0x3cfa82dc	0.030579977
118	0x3d2d86d0	0.042364895
119	0xbda53c84	-0.08068183
120	0x3d2138dd	0.03936087
121	0xbcc82dc0	-0.024435878
122	0x3e0796d8	0.13241136
123	0x3d875b3e	0.066092
124	0x3b8b1add	0.0042451457
125	0xbcb6c2b2	-0.022309635
126	0xbd46bcd8	-0.04851994
127	0x3cb899ac	0.022534214

network_body.linear_encoder.seq_layers.0.weight f4 [128, 12]
0	0xbe82957e	-0.25504678
1	0x3f0a890e	0.5411538
2	0xbf0aab89	-0.5416799
3	0x3d77e363	0.060519587
4	0xbe565952	-0.2093251
5	0x3f6f13a9	0.93389374
6	0x3ed609f8	0.4180448
7	0xbe9d2b01	-0.30696872
8	0xbd290abd	-0.041270006
9	0xbc8cc25f	-0.017182527
10	0x3e709130	0.23492885
11	0x3e53c0b4	0.20678979
12	0x3e01e3d1	0.12684561
13	0x3e402bb1	0.18766667
14	0x3c85515d	0.016274149
15	0xbe9be677	-0.30449268
16	0x3e83c7f7	0.257385
17	0xbed6166a	-0.41813976
18	0x3e9eeb96	0.31039113
19	0x3eea95d2	0.4581743
20	0x3de53629	0.11191971
21	0x3e4e4f41	0.2014742
22	0xbe111cac	-0.14171094
23	0xbec0ddff	-0.3766937
24	0x3ef3abcc	0.47592008
25	0xbdb62343	-0.088934444
26	0x3e314f1f	0.17315339
27	0x3e5e1b05	0.21689995
28	0xbed22c4b	-0.41049418
29	0x3eaf8361	0.34279922
30	0x3f06dd44	0.52681375
31	0x3d0f8dd6	0.035047375
32	0x3ed0f819	0.40814283
33	0x3ebc2585	0.36747375
34	0x3dd3cb5f	0.10341524
35	0xbf2f7109	-0.6853185
36	0x3e7d6abb	0.24747746
37	0x3f138128	0.5761895
38	0x3e9189ef	0.28425547
39	0xbcebc108	-0.028778568
40	0xbdd72e54	-0.10506883
41	0xbe9d9199	-0.30775145
42	0x3d52a6f8	0.051428765
43	0xbe822fba	-0.25427037
44	0xbed1cf95	-0.40978685
45	0xbea60cd1	-0.32431653
46	0xbedc0ac0	-0.42976952
47	0xbe462ab7	-0.19352232
48	0x3e83a21b	0.25709614
49	0x3ed1d7f8	0.40985084
50	0x3b5cc5d6	0.0033687255
51	0xbebb133f	-0.3653812
52	0x3e7e1fed	0.24816866
53	0xbd6d77bd	-0.05797552
54	0x3e1ff0a4	0.15619141
55	0x3e17c3b8	0.14820755
56	0x3f08e0ef	0.5346822
57	0x3e0300e7	0.12793313
58	0x3eb9b46c	0.36270463
59	0x3ed12877	0.40851185
60	0xbe750205	-0.23926552
61	0x3e069483	0.1314259
62	0xbdd71f04	-0.10503963
63	0x3e7b618f	0.24548934
64	0x3e3713bf	0.17878626
65	0x3e670b22	0.2256284
66	0xbe5f55d6	-0.21810088
67	0xbf3bcc74	-0.73358846
68	0x3eea1f21	0.45726874
69	0x3edf5d48	0.43625855
70	0xbb118c26	-0.002220878
71	0xbba8b2d4	-0.005148271
72	0xbe623ae8	-0.22092783
73	0x3e87b06c	0.26501787
74	0x3e0d9252	0.13825348
75	0xbcaee896	-0.02135114
76	0x3de02063	0.10943677
77	0xbe3fa519	-0.18715324
78	0xbe5d4b47	-0.21610747
79	0xbd3d04a4	-0.046147004
80	0x3ec44c16	0.383393
81	0x3d85eac4	0.065389186
82	0x3e0cf89a	0.13766709
83	0x3e68dc3c	0.22740263
84	0xbeef6525	-0.46756855
85	0xbf1bcf3c	-0.6086309
86	0x3f07f315	0.5310529
87	0x3f09d621	0.5384236
88	0xbe394cce	-0.18095705
89	0x3b2c429b	0.0026284817
90	0xbd4f6486	-0.050632976
91	0xbd0f66f6	-0.0350103
92	0xbe5f1703	-0.21786122
93	0x3ce7a003	0.028274542
94	0x3d964912	0.07338156
95	0xbd836f7a	-0.06417747
96	0x3ef901b3	0.4863411
97	0xbf390200	-0.72268677
98	0x3e10bc14	0.14134246
99	0xbe38f125	-0.1806074
100	0x3d0952c7	0.03352621
101	0xbce39e19	-0.027785348
102	0xbe7e64e3	-0.24843173
103	0x3dfbcd0e	0.122949705
104	0xbdc0ba90	-0.09410584
105	0xbed1ff01	-0.41014865
106	0x3e5be5e1	0.2147441
107	0xbeb461e1	-0.35230926
108	0xbda69440	-0.08133745
109	0x3ed59a14	0.41719115
110	0xbee123fe	-0.43972772
111	0x3e8923bb	0.26785073
112	0xbedf6232	-0.43629605
113	0x3f20a633	0.627536
114	0x3f115258	0.5676627
115	0xbe814d13	-0.25254115
116	0x3ed572cb	0.41689143
117	0x3c46ea84	0.012140874
118	0xbe0af308	-0.13569272
119	0xbca8c62d	-0.02060231
120	0xbd06c555	-0.032903034
121	0xbe43a5a7	-0.1910616
122	0x3d638528	0.05554691
123	0x3e1f5002	0.15557864
124	0xbeaac21e	-0.33351225
125	0x3ec2e028	0.38061643
126	0xbe9fc2c2	-0.31203276
127	0xbecad982	-0.3961907
128	0x3ec4233f	0.3830814
129	0xbd2a909e	-0.041641824
130	0x3f16a222	0.58841145
131	0x3d6f09bd	0.058358897
132	0x3eebd528	0.46061063
133	0x3f048c4c	0.51776576
134	0x3f1675b5	0.58773357
135	0x3e60f4c9	0.21968378
136	0xbe16aa54	-0.14713413
137	0xbf4d80bf	-0.80274576
138	0xbe521c15	-0.20518525
139	0x3c152bac	0.0091046505
140	0x3e0e836d	0.13917322
141	0xbdbb6e53	-0.09151902
142	0xbe800e62	-0.25010973
143	0x3e073f2d	0.13207693
144	0x3ee91d82	0.45530325
145	0xbbe80d71	-0.0070816805
146	0xbd347e82	-0.04406596
147	0x3e45123e	0.1924524
148	0x3da989bc	0.08278224
149	0xbd647bb2	-0.055782028
150	0x3f5b300d	0.85620195
151	0x3e7d28a9	0.24722542
152	0x3ea2cda7	0.31797525
153	0x3d811ecc	0.06304702
154	0xbec03440	-0.37539864
155	0x3b78d430	0.003796827
156	0xbe14ad65	-0.1451927
157	0xbedbaa5e	-0.42903417
158	0xbded2966	-0.11580162
159	0xbeb0f965	-0.34565273
160	0xbe83fb88	-0.2577784
161	0x3e032c6f	0.12809919
162	0x3d7261ec	0.059175417
163	0x3eadef38	0.33971572
164	0xbf0eca39	-0.5577732
165	0xbe4f7716	-0.20260271
166	0x3d6b5f51	0.057463948
167	0x3ef5be44	0.47996724
168	0x3e7981bc	0.24365896
169	0xbe007043	-0.12542824
170	0xbeb48920	-0.35260868
171	0x3e11c117	0.14233814
172	0x3ec015c6	0.37516612
173	0x3d8baefc	0.06820485
174	0x3ede399e	0.43403333
175	0x3d9115ec	0.070842594
176	0x3da00239	0.07812924
177	0xbe8a005d	-0.26953402
178	0xbefaae5d	-0.48961154
179	0xbd5090c9	-0.050919328
180	0x3d950012	0.07275404
181	0xbddd5805	-0.10807804
182	0x3ee284a3	0.4424182
183	0xbc9cddf0	-0.019148797
184	0xbeb5e328	-0.3552487
185	0x3d30d05c	0.043167457
186	0xbf011bd9	-0.5043312
187	0x3eac7408	0.33682275
188	0x3e3c31d1	0.18378378
189	0x3de0095b	0.109392844
190	0xbee7a897	-0.4524581
191	0xbe798ce3	-0.2437015
192	0x3ed3e517	0.4138572
193	0x3c0bd7b2	0.0085353125
194	0xbcc2781d	-0.023738915
195	0x3dd3b3e1	0.103370436
196	0x3f0d5485	0.5520709
197	0x3e493fbb	0.19653217
198	0x3ec1cf5e	0.3785352
199	0xbee28996	-0.44245595
200	0x3e5b5460	0.21418905
201	0xbea5bd15	-0.3237082
202	0x3d4ecd6f	0.050488885
203	0xbe426d07	-0.18986903
204	0xbe0175b0	-0.1264255
205	0x3da2a87d	0.07942293
206	0x3f04f0f5	0.5193017
207	0xbe83437e	-0.2563743
208	0x3d886b94	0.06661144
209	0xbf29c7d7	-0.66320556
210	0xbe9efb2f	-0.31051013
211	0xbeea6c2d	-0.45785657
212	0xbebed34e	-0.37270588
213	0xbf02459f	-0.50887483
214	0x3e001169	0.12506641
215	0xbf2c5e51	-0.67331415
216	0x3d881a68	0.066456616
217	0x3e894368	0.2680924
218	0xbe006e21	-0.12542011
219	0xbe8d203b	-0.27563652
220	0x3f1dae6c	0.6159427
221	0xbe10d0f5	-0.14142211
222	0x3db2f83b	0.087387525
223	0xbdc7fb07	-0.097646765
224	0xbd1f72bb	-0.038927775
225	0xbdecde47	-0.115658335
226	0x3ee4357c	0.44572055
227	0x3ea5d7e2	0.32391268
228	0xbea18fd5	-0.31555048
229	0x3d2ffe0a	0.04296688
230	0xbef69c08	-0.48165917
231	0xbe9ebf14	-0.31005156
232	0x3e14d756	0.14535269
233	0xbee9f438	-0.45694137
234	0xbeba8683	-0.3643075
235	0xbdfb928e	-0.122838125
236	0x3e49c39f	0.1970353
237	0x3dc1a91d	0.09456084
238	0xbad5fbeb	-0.0016325688
239	0xbcc56ed1	-0.024100693
240	0x3d4eb382	0.05046416
241	0x3cf99e63	0.030471032
242	0x3f0236dd	0.50864965
243	0x3d26f828	0.040764004
244	0x3d05c5d3	0.032659363
245	0xbdd5d7f2	-0.10441579
246	0xbe0c2b2e	-0.13688347
247	0x3ee09631	0.43864587
248	0x3e55fa8c	0.20896357
249	0x3e927230	0.28602743
250	0xbc1082d8	-0.008820258
251	0xbdfe25e1	-0.124095686
252	0xbd9346ba	-0.071912244
253	0x3dcffedd	0.10156033
254	0x3dbb3079	0.09140105
255	0xbea4c74e	-0.32183307

network_body.linear_encoder.seq_layers.2.bias f4 [128]
0	0xbd80a402	-0.06281282
1	0x3c824062	0.01589984
2	0x3d526e8d	0.05137496
3	0x3d58ed88	0.052960902
4	0x3ccfdf84	0.025375135
5	0x3be55785	0.0069989585
6	0x3c10e33f	0.008843242
7	0xbcbdad9f	-0.023154078
8	0x3ca41c1d	0.020032937
9	0x3c7db426	0.015484845
10	0xbc41b69e	-0.0118233245
11	0x3cb3981a	0.021923114
12	0xbcc240ef	-0.023712603
13	0xbb19f40f	-0.0023491418
14	0xbd08c58c	-0.03339152
15	0x3d4ad7a4	0.049522057
16	0x3c847695	0.016169826
17	0x3c8c62e3	0.017136997
18	0xbd03acd3	-0.03214724
19	0xbc84303d	-0.016136283
20	0xbc95c7df	-0.018283783
21	0x3d37fbe9	0.044917975
22	0x3be21633	0.006899619
23	0xbcb178a4	-0.021663971
24	0x3d1465d7	0.036229935
25	0x3b532c9d	0.0032222637
26	0x3baa676b	0.0052003167
27	0x3bc713d3	0.0060753613
28	0x3d1115dc	0.035421237
29	0x3bf4e9e9	0.0074741733
30	0x3c294f9b	0.010333921
31	0x3d1960c2	0.03744579
32	0xbbfe9e7e	-0.0077703586
33	0xbccb107e	-0.024788138
34	0x3c7835ec	0.015149575
35	0x3b032033	0.0020008206
36	0x3ca3b868	0.019985393
37	0xbc7fabc3	-0.015604916
38	0x3c3b05e1	0.011414976
39	0xbc4137c8	-0.011793084
40	0x3d750e73	0.059828233
41	0x3cec51ab	0.028847536
42	0x3cbde368	0.023179725
43	0x3dba37bf	0.09092664
44	0xbcc3b031	-0.023887726
45	0x3cc26825	0.0237313
46	0x3c759a84	0.014990453
47	0x3c3bdfb1	0.011466906
48	0x3c2668df	0.010156839
49	0x3c7d9a1d	0.015478638
50	0x3c1ff5fb	0.009763236
51	0x3cdbc7ec	0.026828729
52	0x3ca319be	0.019909736
53	0xbd035a24	-0.032068387
54	0x3d05d965	0.032678027
55	0x3d075477	0.033039536
56	0x3ca61b87	0.020276798
57	0x3ca0ea20	0.01964289
58	0xbbaf7b7e	-0.0053552976
59	0x3d6e0184	0.058106914
60	0xbce58d0e	-0.028021362
61	0x3d01d253	0.03169472
62	0x3c64ae38	0.013957553
63	0xbc184460	-0.009293646
64	0x3ca00322	0.019532744
65	0x3c9333f3	0.017969107
66	0x3d9b9ab5	0.075978674
67	0x3c406ca4	0.011744652
68	0xbcbdc2c0	-0.023164153
69	0x3c1b79fd	0.0094895335
70	0x3d8cf0e1	0.068818815
71	0xbcb07846	-0.021541726
72	0x3c461c8a	0.012091765
73	0x3d16545a	0.036701538
74	0xba2eadef	-0.00066634914
75	0x3bc4b286	0.006002727
76	0x3d65b3a8	0.056079537
77	0xbd459252	-0.048235245
78	0x3c3962d5	0.011315067
79	0xbd5120ea	-0.05105678
80	0x3c38649a	0.011254454
81	0x3c8fd2e5	0.017556617
82	0x3cf7a457	0.03022973
83	0x3cbd9a01	0.023144724
84	0xbbb729a3	-0.0055896803
85	0xbc4c0601	-0.012452603
86	0x3c82af2d	0.015952671
87	0x3d25908d	0.040421057
88	0x3d94ba56	0.07262103
89	0x3d37597a	0.044763066
90	0x3d4f068b	0.05054335
91	0xbb8db814	-0.0043249223
92	0x3d0249e9	0.031808767
93	0x3af953d1	0.0019022172
94	0x3c9adfbe	0.018905517
95	0x3d9ddb07	0.07707792
96	0x3ca35ec1	0.019942643
97	0xbcb61ab4	-0.02222953
98	0x3a117222	0.0005548318
99	0x3d77a693	0.060461592
100	0xbc9838a9	-0.018581705
101	0x3bd91e02	0.0066258917
102	0x3d17719c	0.03697358
103	0x3c7bd20a	0.015369901
104	0xbc967d8d	-0.018370414
105	0x3cce05fe	0.025149342
106	0x3d2c14cf	0.042012032
107	0xbc680ce7	-0.014163232
108	0x3ce1f1fb	0.027581206
109	0x3d2515c8	0.040303975
110	0x3d6063ad	0.05478256
111	0x3ca98172	0.020691607
112	0x3db28b9d	0.08718035
113	0x3d328abf	0.04358935
114	0xbcc6363a	-0.02419578
115	0xbacf2160	-0.0015802793
116	0x3c872ad2	0.01649991
117	0xbd3cd417	-0.046100702
118	0xbd21a796	-0.039466463
119	0x3d1f36c0	0.038870573
120	0xba8e962a	-0.0010878493
121	0xbca5aae3	-0.020223087
122	0x3bbce516	0.005764614
123	0x3c3af243	0.011410299
124	0xbbf7f886	-0.007567468
125	0x3ca41dfd	0.02003383
126	0xbc141991	-0.009039299
127	0x3d764c6a	0.060131468

network_body.linear_encoder.seq_layers.2.weight f4 [128, 128]
0	0xbe934b40	-0.2876835
1	0xbddda8d4	-0.10823217
2	0xbe0b4d68	-0.13603747
3	0xbe0152ba	-0.12629214
4	0xbc58bfa0	-0.013229281
5	0xbe02e549	-0.12782778
6	0xbdbec962	-0.093157545
7	0xbe16a463	-0.14711146
8	0x3d2f3b9c	0.042781457
9	0xbe7b6b58	-0.24552667
10	0x3cac6028	0.021041945
11	0x3da34440	0.07972002
12	0x3b71b03a	0.003687872
13	0xbe1c496a	-0.1526238
14	0x3b4ed1e1	0.0031558203
15	0xbd8b40e9	-0.0679949
16	0x3e10bc0d	0.14134236
17	0xbe874b57	-0.26424667
18	0x3e08133c	0.13288587
19	0x3d34d410	0.04414755
20	0xbd06a000	-0.03286743
21	0xbe1da510	-0.15394998
22	0x3dd231df	0.102634184
23	0xbe119680	-0.14217567
24	0x3dee5e80	0.11639118
25	0x3d067198	0.032823175
26	0xbd7a28c0	-0.06107402
27	0xbc143d77	-0.0090478575
28	0x3e2febb2	0.17179754
29	0xbe012b4b	-0.12614171
30	0xbb9c77f0	-0.00477504
31	0xbdc557a6	-0.09635858
32	0x3d7a2bda	0.061076976
33	0xbd7bad28	-0.06144443
34	0x3dc52a3e	0.09627198
35	0xbb8d7473	-0.0043168603
36	0x3bbca081	0.0057564382
37	0xbd871627	-0.06596022
38	0xbddae485	-0.10688118
39	0x3c14a24e	0.0090719
40	0x3c8e8b58	0.017400429
41	0xbcf77b53	-0.030210173
42	0xbdc8a481	-0.09797002
43	0xbe74d63c	-0.23909849
44	0xbe3c7108	-0.18402493
45	0xbdcf4120	-0.101198435
46	0xbe323dd2	-0.17406395
47	0xbdb2d260	-0.08731532
48	0x3cae3563	0.021265691
49	0x3e2c811d	0.16846128
50	0xbd521477	-0.051289048
51	0x3db547d7	0.08851593
52	0x3da10bef	0.07863604
53	0xbd8e02be	-0.06934117
54	0x3dd9d026	0.10635404
55	0xbcfc5672	-0.03080294
56	0x3d5d96a2	0.054098733
57	0x3d6a0384	0.05713226
58	0x3e16bccf	0.14720462
59	0x3d4fec52	0.050762482
60	0x3c56dbda	0.01311394
61	0xbdc01a88	-0.093800604
62	0xbe83ae89	-0.25719097
63	0x3dc88bf0	0.09792316
64	0x3cd9e7e6	0.026599836
65	0x3d283c86	0.041073345
66	0xbd88c1ae	-0.066775665
67	0x3da9c1cd	0.08288918
68	0x3abddb7c	0.0014484967
69	0xbc685f2e	-0.014182849
70	0x3cc60bf9	0.02417563
71	0x3d8b322e	0.067966804
72	0xbc0aa1b5	-0.0084614055
73	0xbe7020ef	-0.23450063
74	0x3c0f97a7	0.008764184
75	0xbd6ee48c	-0.058323428
76	0xbdd8da77	-0.10588544
77	0x3e2b979d	0.16757055
78	0xbd9afdb5	-0.07567922
79	0xbe609ee1	-0.21935607
80	0x3db28b5c	0.08717987
81	0x3c989c99	0.01862936
82	0xbe3b9da6	-0.18321857
83	0x3da2634a	0.07929094
84	0x3e2af98f	0.16696762
85	0xbcddea14	-0.027089156
86	0x3d2bf740	0.041983843
87	0xbc12bfee	-0.008956892
88	0x3d02ad9c	0.031903848
89	0x3dbfca50	0.0936476
90	0x3d0be416	0.034153067
91	0x3d9f29d1	0.07771648
92	0xbdd55bc5	-0.10417894
93	0x3dcacb77	0.09902089
94	0xbd2b6cee	-0.04185193
95	0x3dde620d	0.108585455
96	0x3dab52df	0.08365416
97	0xbe027185	-0.12738617
98	0xbd806c34	-0.06270638
99	0xbd0f445d	-0.034977306
100	0xbd8672fd	-0.06564901
101	0x3dddec3b	0.10836073
102	0xbd055610	-0.03255278
103	0xbe2e9188	-0.17047703
104	0x3dd307f6	0.10304253
105	0xbe48a842	-0.19595435
106	0xbdd73999	-0.10509033
107	0xbd8b9c1c	-0.06816885
108	0xbdb774e3	-0.08957841
109	0x3e0a74e2	0.1352115
110	0x3ddf5916	0.10905664
111	0xbeb14b0b	-0.34627566
112	0xbcda4f14	-0.026649036
113	0xbe24870e	-0.16067144
114	0x3dc011b9	0.0937838
115	0xbde609bc	-0.112323254
116	0x3d6e9b7b	0.058253746
117	0xbd1455a4	-0.036214486
118	0x3cf4440c	0.029817604
119	0xbd04c12b	-0.03241078
120	0xbe0a0752	-0.13479355
121	0xbdd2073c	-0.10255286
122	0xbcf734fa	-0.030176628
123	0x3d426c95	0.047466833
124	0x3e25b167	0.16180955
125	0xbd6b778a	-0.05748705
126	0x3bc534c6	0.006018254
127	0xbe8e4cee	-0.27793068
128	0x3db4c554	0.088267
129	0xbe2755dd	-0.16341348
130	0xbdb66dcd	-0.089076616
131	0x3d45064f	0.04810172
132	0x3db72472	0.08942498
133	0x3d88e530	0.06684339
134	0xbd604531	-0.054753486
135	0xbdcdaf9d	-0.10043261
136	0xbceda598	-0.029009625
137	0x3e35f14e	0.17767832
138	0xbdc461ea	-0.09588988
139	0x3d3fea20	0.04685414
140	0x3e058548	0.13039124
141	0xbe30b4e8	-0.1725651
142	0xbd8abc66	-0.067742154
143	0x3cb2b84a	0.021816391
144	0x3e5e98a1	0.21737911
145	0xbe4e9eea	-0.20177808
146	0xbc74c351	-0.014939145
147	0x3d26193d	0.040551413
148	0x3d348ce1	0.044079665
149	0x3dfc6cc2	0.123254314
150	0xbd8e39ad	-0.069445945
151	0x3d38f631	0.04515666
152	0xbcff3b11	-0.031156095
153	0x3e714d51	0.2356465
154	0xbd55e937	-0.052224364
155	0xbdea9378	-0.11453909
156	0xbc7f44ca	-0.015580365
157	0x3cdbe696	0.02684335
158	0x3e1588f4	0.14603025
159	0xb9d064ba	-0.000397479
160	0x3b417c3d	0.0029523515
161	0x3df7bb8e	0.1209632
162	0x3c38184c	0.011236262
163	0xbe75f7b9	-0.2402028
164	0x3e31aa55	0.17350133
165	0xbc05b3fb	-0.0081605865
166	0xbd938b0d	-0.07204256
167	0x3eac3541	0.3363438
168	0x3da6af7a	0.08138938
169	0x3c7cc54d	0.0154279
170	0x3da514dc	0.08060619
171	0x3ac7630f	0.0015212017
172	0xbd42b3bb	-0.047534686
173	0x3d495362	0.049151786
174	0x3d4c8a83	0.049936783
175	0xbd536a7b	-0.05161522
176	0x3e8a002e	0.26953262
177	0x3e00d720	0.12582064
178	0xbdd2b7bf	-0.10288953
179	0x3d22db37	0.03975984
180	0x3daab8d9	0.08336038
181	0xbda436ca	-0.08018263
182	0xbd9ddca6	-0.07708101
183	0xbdb59072	-0.088654414
184	0xbc9245c7	-0.017855538
185	0x3db0e156	0.086367294
186	0x3e1ac7c9	0.15115274
187	0xbe341d37	-0.1758927
188	0x3c637975	0.013883938
189	0xbe410cec	-0.18852586
190	0xbdfab34b	-0.12241229
191	0x3e41a7d8	0.18911684
192	0xbdf8419b	-0.12121888
193	0xbe033b44	-0.12815577
194	0x3d9d0e17	0.07668703
195	0xbb851a02	-0.0040619383
196	0x3dd42013	0.1035768
197	0xbd2c0b96	-0.042003237
198	0xbd980d9e	-0.07424472
199	0xbd881427	-0.06644469
200	0xbe7c8582	-0.24660304
201	0x3d449197	0.047990408
202	0xbe6b6fdd	-0.22991891
203	0xbe000df7	-0.12505327
204	0x3d235e0a	0.039884605
205	0xbe79cce3	-0.24394564
206	0x3e21977d	0.15780444
207	0xbdf58b75	-0.1198949
208	0xbd577e30	-0.052610576
209	0x3c971ada	0.018445421
210	0xbdbf35fd	-0.09336469
211	0xbe33f74c	-0.17574805
212	0x3aede34e	0.0018149407
213	0x3dace27d	0.08441637
214	0xbe0c3172	-0.13690737
215	0x3d968e96	0.07351415
216	0xbcf5dd95	-0.030012885
217	0xbde0e045	-0.10980276
218	0x3e0bb363	0.1364265
219	0xbe5a3e0f	-0.21312736
220	0x3cb82ff0	0.022483796
221	0x3b5d5a7c	0.0033775857
222	0xbc112599	-0.008859062
223	0x3e8ec39f	0.27883622
224	0xbe7cd39f	-0.24690102
225	0x3e00a5ad	0.125632
226	0x3d3f6a22	0.046732076
227	0x3d11cb12	0.035594054
228	0x3df6da44	0.120533496
229	0xbce25518	-0.027628466
230	0x395bd8b9	0.00020966203
231	0x3cc2fd1d	0.023802334
232	0xbe8f79c4	-0.28022587
233	0xbe59d8f4	-0.21274167
234	0xbdc2d4fc	-0.0951328
235	0xbe2a116c	-0.16608208
236	0xbc578ebe	-0.013156591
237	0x3bf95d99	0.0076100347
238	0x3c50fd15	0.012755652
239	0x3d11436e	0.035464697
240	0x3c2ffd8d	0.010741604
241	0xbd8ac531	-0.067758925
242	0x3dc9cb9e	0.0985329
243	0xbd3cd541	-0.046101812
244	0xbcc80920	-0.024418414
245	0xbe01ce57	-0.12676369
246	0x3e1f8cc2	0.15581039
247	0x3de7294c	0.11287174
248	0x3e0e4cc2	0.13896468
249	0x3e074940	0.13211536
250	0xbcc70435	-0.024293998
251	0x3bba3d90	0.0056836084
252	0xbde57590	-0.11204064
253	0x3dc61ef5	0.09673873
254	0xbe1f938d	-0.1558363
255	0xbb396cca	-0.0028293603
